…
    # Export image to file (on current PC):
    docker save -o food-calorie-estimator.tar food-calorie-estimator

    # Import on new PC (only Docker needed, no Python/TF install!):
    docker load -i food-calorie-estimator.tar
    docker run -p 5000:5000 food-calorie-estimator

================================================================================
  8. MODEL ARCHITECTURE SUMMARY
================================================================================

  Layer                    Output Shape          Parameters
  ─────────────────────────────────────────────────────────
  InputLayer               (None, 224, 224, 3)   0
  MobileNetV2 (frozen)     (None, 7, 7, 1280)    2,257,984  (not trained)
  GlobalAveragePooling2D   (None, 1280)           0
  Dense (ReLU, 128)        (None, 128)            163,968    (trained)
  Dense (Softmax, 5)       (None, 5)              645        (trained)
  ─────────────────────────────────────────────────────────
  Total trainable params   : ~164,613
  Total frozen params      : ~2,257,984

  Training: 5 epochs, batch_size=16, optimizer=Adam(lr=0.001)
  Train split: 80% (160 images/class), Val split: 20% (40 images/class)

================================================================================
  9. KEY ML TERMS GLOSSARY
================================================================================
…
